melhor_modelo.pth (torch, 359063 bytes, 14 tensors)

lstm.weight_ih_l0 f4 [256, 21]
00000000: df3a fcbe e27a 17bf f438 89bf f9ff 843f
00000010: a3e2 78bf 1445 ef3f 34de 023f 073b 863f
00000020: 70e9 6fbf b571 9fbe cb1e a3bc 68d3 47be
00000030: 226b a73d 4aa1 12be c750 133e e52b 3f3f
00000040: f91b 8a3e 513a 693f c3d3 4f3e 873a e53e
00000050: b60f 9e3e cf2b 79be 91c6 dc3e 0494 eb3e
00000060: d802 f43d 738c 163f 7714 ebbd fa5a 98bf
00000070: d88c 83bf 0f01 83bf 12b4 d03e a3ed 083e
00000080: 74f5 e03e aebd c03e 7a4a 063f 1f65 d23e
00000090: ac70 5c3e 04a9 ba3e 4653 74be 895d 1d3e
000000a0: ef6e 42bd 66a6 ca3d bdaa e63e 26a2 0cbf
000000b0: 6636 333f a006 33bf e81c e0be d3da 0cbd
000000c0: cac3 92be b6af 09bf 2ea2 8ebe 9150 bc3e
000000d0: a952 d63e 2ec3 7e3e 3339 d93e ddd7 843e
000000e0: 3146 a63e 0c14 d9bd b131 ab3e 80f7 253e
000000f0: 2400 6e3e 2cbb 923e 7c74 7c3e 7794 02be
00000100: e47a 7e3f afaa dc3e 94a4 103f fe62 69be
00000110: 8a9c 08bf aff9 26bf 4eef 623f 98e6 9dbf
00000120: 6ec5 9bbd 8a35 98be d93d 91bd f4c2 b0be
00000130: 8e07 a6bc 288b 8abe 3bab 03bf f9cd 8ebe
00000140: 42be 32bf 033d 04bf 1d13 8d3d 0d4c 04bf
00000150: e6b7 ddbe 112f b93d 57b5 513f b3db c8be
00000160: ead6 a83f 252f 7ebe 923b c93e 9dba 663e
00000170: df0b 86be 978a a03e f25c 3bbe 10d5 cbbd
00000180: 2b06 533e 7cba 173c d4f2 993d c0a3 3dbe
00000190: bef2 2c3c 9c52 0a3e 758c 863c 6f7a 003e
000001a0: d65d 30bc bca7 01bf af12 6f3f 2b99 76bd
000001b0: 2250 763e b522 26bf 8479 bf3f ff77 b03f
000001c0: 2435 6fbf de8c a73e 6579 80be 3803 0fbf
000001d0: 48c5 a2b8 c1be cabe 0875 c1be 3498 67be
000001e0: 9155 08be 65b9 ccbd f080 fa3e 5e59 8ebd
000001f0: 31b4 863e df1e 64bc 8b9e 6e3e 3051 47be
00000200: 4ec2 2f3f e0f9 3c3f 073f f4be df4e cdbd
00000210: f873 a4bf fb87 903f 345a e9be 54a5 c13e
00000220: 0f41 953e c889 843f ba86 3d3f d0a7 a53f
00000230: a454 5b3f 6e22 273f f1e1 5a3f c1d4 cdbe
00000240: da42 293f ace5 843e 86f0 2d3f e67d 6dbe
00000250: abb0 9ebe 093d c8bd 5e14 1340 d125 71be
00000260: f461 14be f144 b1be 9348 b73e 9b48 783f
00000270: 2c20 77be 1d83 83bd 7382 503f 2814 0dbd
00000280: fac6 e0be ed9a 053e 1a24 3e3f 18f5 583c
00000290: f51e c43e 64c0 c13d 6676 563e 083b 473e
000002a0: 09ea 053f 0a28 e6bd 2bda 0e3f bb95 e1bc
000002b0: d738 9c3d b74d f33e b2b5 1abf e338 ce3e
000002c0: b594 61be 0822 0d3f 3e41 093f 1fb9 15bf
000002d0: 1186 813e aa61 b6be 5fea 953d 4750 a9bd
000002e0: 0c65 733c fee4 4fbd c5bc a0bd 56c6 8fbe
000002f0: e9e0 60be db82 f33d 4b7a b63e 7d9d 48bf
00000300: b39c bb3e 6279 8f3f aa2c 173f 2244 683e
00000310: c406 c0bf d543 813f 96d5 22be 9d5d e83d
00000320: 99dd 84bd 75d6 d63d 0669 563e 844d 613e
00000330: e5cb 763e 1420 ac3d dc04 9e3e 0f82 083c
00000340: adc5 453e 07fc 063e ed39 563f 6ac0 0640
00000350: 54ea 77bd 2b15 f3be b61a 80bf 1f86 3d3f
00000360: 7bc0 44bf 95ed b8bf 1842 443f be37 abbe
00000370: e825 4cbe 94dd e7be 3483 c8be dcf1 7dbe
00000380: b1f8 f5be 79ad 393d 5aec 7dbe 43fa 583f
00000390: 5789 d1be 45eb 9a3d d70e cbbe 9f92 de3e
000003a0: 5983 f4bc 0d2c 3e3f 14f4 533e b477 1ebe
000003b0: 663e 393f 8d1c 81bf 6d57 18bf a745 593e
000003c0: 71e7 523d 946b 0c3f 6345 52bd d226 df3e
000003d0: eaad 7a3f 2b3f af3e b030 e43d a078 cb3e
000003e0: ad7e 30bf e0e1 b53e e997 43bf 3702 e03d
000003f0: 7f24 89bf 7347 9dbf 64f0 9a3e 5ee8 9abe
-0.49263665 -0.5917188 -1.0720506 1.0390617 -0.9722082 1.8692956 0.51120305 1.0486764
-0.9371557 -0.3114144 -0.019912144 -0.19514239 0.08174731 -0.1431934 0.14386283 0.7467635
0.26974466 0.9110461 0.20295624 0.44771215 0.30871361 -0.24333118 0.43120244 0.46011364
0.11914605 0.5880806 -0.11478513 -1.1902764 -1.0277357 -1.0234698 0.40762383 0.13371901
0.43937266 0.37644714 0.5245739 0.41092774 0.21527356 0.36457074 -0.23859891 0.15367712
-0.047469076 0.09895019 0.45052138 -0.5493492 0.7000488 -0.69931984 -0.43772054 -0.034388375
-0.28665 -0.5378374 -0.27858108 0.36780217 0.4185994 0.24879143 0.42426452 0.2594594
0.32475427 -0.10599527 0.3343635 0.16207695 0.23242241 0.28658426 0.2465381 -0.12751947
0.99406266 0.4309897 0.56501126 -0.22791669 -0.5336386 -0.65224737 0.886464 -1.2335997
-0.07606016 -0.29728347 -0.07091875 -0.34523737 -0.020267274 -0.27059293 -0.5143315 -0.2789152
-0.6982156 -0.51655596 0.06888411 -0.51678544 -0.43304366 0.0904218 0.8191733 -0.39230117
1.3190587 -0.24822672 0.3930326 0.22532125 -0.26180932 0.31355736 -0.18297175 -0.09952748
0.20607822 0.00926077 0.07517019 -0.18519497 0.010555921 0.13508075 0.016424397 0.12546705
-0.01076456 -0.5064657 0.93387884 -0.060204666 0.24054006 -0.6489671 1.4958959 1.378662
-0.9344046 0.3272466 -0.25092617 -0.55864286 -7.7615085e-05 -0.3959866 -0.377846 -0.22616655
-0.13313891 -0.09996299 0.48926497 -0.06950639 0.2630935 -0.013923376 0.23302667 -0.19464564
0.6865586 0.7381878 -0.47704336 -0.10024809 -1.2847891 1.1291498 -0.45576632 0.37821448
0.29151198 1.0354548 0.740337 1.2941837 0.85676026 0.6528691 0.8550101 -0.4020138
0.6611763 0.25956476 0.67945135 -0.23192558 -0.30994162 -0.097772665 2.298118 -0.23549582
-0.14490491 -0.3462291 0.35797557 0.9698579 -0.24133366 -0.06421492 0.8144905 -0.03444305
-0.43901807 0.13047381 0.74273837 0.013242029 0.38304868 0.09460524 0.20943603 0.19456112
0.52310234 -0.112381056 0.5580165 -0.027537217 0.07628029 0.4752023 -0.60433495 0.40277776
-0.22029383 0.5513005 0.53615177 -0.584856 0.25297597 -0.35621387 0.07320093 -0.08267265
0.014855634 -0.050755493 -0.07848505 -0.28081006 -0.21960796 0.11890193 0.35640177 -0.7836531
0.3664299 1.1208918 0.59052527 0.2268224 -1.5002065 1.0098826 -0.15901789 0.1134598
-0.06487579 0.10490123 0.20938501 0.22002226 0.24101217 0.08404556 0.30863082 0.00833179
0.19313689 0.13182078 0.8368214 2.105494 -0.060526207 -0.47477087 -1.0008152 0.7403278
-0.768562 -1.4447504 0.7666335 -0.33440965 -0.19936335 -0.45286238 -0.391626 -0.24799293
-0.480413 0.045331452 -0.24797192 0.8475687 -0.40925094 0.07564405 -0.3965976 0.43471238
-0.029847788 0.74285966 0.20698577 -0.1547535 0.7236084 -1.0086838 -0.595084 0.21217977
0.05149025 0.5485165 -0.051335704 0.43584305 0.9792162 0.3422788 0.11142099 0.39740467
-0.6894329 0.3552389 -0.7640367 0.109379224 -1.0714263 -1.228743 0.30261528 -0.30255407

lstm.weight_hh_l0 f4 [256, 64]
00000000: 3593 c03c 1039 f5bd e5d0 843f 2318 9c3f
00000010: 5a2d 1b3f e284 95be 4c2c 6abc faff 943e
00000020: 0fcc 71be b242 8dbe 8294 6ebf 444f 63bf
00000030: 65c6 78be 1277 3f3e 59f7 483f 8d54 963f
00000040: 398a f6bd d1bf 0ebf c5f1 823f 9583 9bbe
00000050: 417c 4cbf 3bc6 9e3e 184d 433e a912 51bf
00000060: d2ab fd3c 23f7 573f 91bc 31bf 0843 c93e
00000070: 2db9 723e 871b 6cbe b83f 59be 294a d2be
00000080: aa15 bc3e 31cf 2ebf 54e0 c43c e282 e6be
00000090: b8de c0be 69b9 b3be 04e4 49bf 151f c23c
000000a0: 39a6 643e 67c1 413f 47d2 6abe fdf4 953d
000000b0: dc8a 44bf 32c2 ac3e 83b7 13bf 1093 7a3e
000000c0: 84ff f33f 7d96 fbbe 8fa6 a4bf 7bf0 1e3e
000000d0: cb85 263e d74a 23bf 0270 cfbe ff98 babe
000000e0: be6d 943f bcd3 63bf c321 bf3e 873f 2bbe
000000f0: 96a6 3dbe a5d6 0a3f f566 4bbf 9299 dbbd
00000100: 6915 113e b32f 393e 7daf 393b 3fc4 ae3e
00000110: b806 46bf 0094 e83b 95c9 6b3e 77de b1bf
00000120: d6af 153f 9d4e 2b3f 9b81 76bf a61e bd3f
00000130: 1485 8ebe 4a6c f5be a306 a0be a60b b1be
00000140: 98aa 463f f654 ed3e 1c0e f0bd 4fd3 b43f
00000150: 1d03 39bf b7ae 883e 5549 ad3e b9ed e03e
00000160: 95bd b23e 9358 b43e 0a1d cb3d f685 32be
00000170: 6348 193e ed3f 863f 27a1 8c3f 5515 7ebd
00000180: 0f3b 21bf e850 dabe 94db 783d 1b8b 80bf
00000190: 9b43 52bf 0c77 853e 3ec3 5e3f e523 bc3b
000001a0: 535d 1cbe d83b 31bf 60ca 183f b0d5 c23e
000001b0: 30bd d33e 2901 24bf b365 b73e 0b45 a33e
000001c0: cd0a ccbe 4e22 613e e94b debe f0d4 633f
000001d0: c82b 19be b23b e93e 540f b6be 9e92 7fbe
000001e0: d2e2 673e 6c5c 3e3c 90c6 8c3d b370 e6be
000001f0: b217 9f3f ef44 13bf 3d36 9abf 5ba1 a7be
00000200: 1c5c c03d 617d 8abe dfa9 45be 6d65 d93d
00000210: 6424 153e 4b11 68bd fc43 3e3d 8514 17bf
00000220: 565f 103f 048f 7abd 0d12 f83e 2be8 53bf
00000230: 0fad ddbe 7969 febe d5e0 153f bbd0 083f
00000240: 5036 e63e 149a c4be 771e b43e ade8 c63e
00000250: 3c97 753f 5b88 b3be cb94 58bf 8ff7 8fbf
00000260: a545 243f 8eb6 84be 9d5a 903f c10a 03be
00000270: 2a5c 303f c3cf f73d 4870 3dbf c135 c13e
00000280: 5380 d6bf 60a4 16bf 7b68 663e 18a7 a9bf
00000290: 9463 3b3f 5150 a13e 438c 8dbf c6db 90bd
000002a0: 1f1d febd 20c2 0bbf d5aa 943c 27ba 573f
000002b0: 8c39 95be e706 72be 0685 5a3f 2b9d b3bf
000002c0: 8b3f 7bbe d241 eb3e d6b0 4c3f b9db d93c
000002d0: 4073 263d 6311 23bf a6ee 653f 2472 f1bc
000002e0: 2387 37be d509 9f3f 0182 ccbe a27d 9c3d
000002f0: e40d 003e a8d5 353c d48c 033f 011e a73e
00000300: 9123 0ebf 64cd 51bd a62c f43e 2cbe 3bbe
00000310: a44f cfbe db7b be3e 5f7a c2be f2c4 fcbe
00000320: 965a f3be a1f0 22be c7cd 43bd 2da3 5a3e
00000330: b03c 23bf 3545 c03e 54fd ce3e 9acb b6be
00000340: 6435 f33e 5102 343e 86e1 aabe bed8 e93d
00000350: 93aa 5abe f230 69be 2983 683f 771a 8fbf
00000360: 4e45 203f 8272 1ebe 6e5d 8e3e cdd8 0abe
00000370: 78ed b13e 060a 7f3f 7d30 443f c702 9c3e
00000380: 65a9 c03e cc48 6cbe cc15 803f 872f 863e
00000390: d2f3 033f 8713 653f 0068 9d3f 0966 563f
000003a0: 5064 e63e 727c 48be 96ec bd3f 03b8 0dbf
000003b0: 054f 363f 9b64 9dbe c0a6 3fbf bfd7 223f
000003c0: 5c77 6e3e 524e 703e 09ad 413f b77f 20bf
000003d0: efef f1bc 68fb 0ebe 9400 1f3f e224 97bf
000003e0: a223 5f3e de55 4fbf 820c 2bbf e541 973e
000003f0: 4d76 a23d 0324 fb3e 33de 2cbf d534 8cbd
0.023507694 -0.119737744 1.037625 1.2194866 0.60616076 -0.29202944 -0.014292788 0.29101545
-0.23612998 -0.27589947 -0.93195355 -0.88792825 -0.24294432 0.18697765 0.7850242 1.1744553
-0.12038083 -0.5576144 1.0230032 -0.30373827 -0.79877096 0.31010613 0.19072378 -0.816691
0.03096572 0.84361476 -0.69428355 0.39308953 0.23703451 -0.23057376 -0.21215713 -0.41072205
0.36735278 -0.682849 0.02403275 -0.4502173 -0.3766992 -0.35102394 -0.7886355 0.023696462
0.22329034 0.75685734 -0.22931777 0.073221184 -0.7677438 0.3374191 -0.5770189 0.24470162
1.9062352 -0.4913825 -1.286333 0.15521424 0.16261975 -0.6378607 -0.40515143 -0.36444852
1.1595991 -0.88994956 0.37330446 -0.16723453 -0.18520579 0.5423377 -0.79453975 -0.107226506
0.14168324 0.18084602 0.002833336 0.341341 -0.77354 0.007097721 0.23026116 -1.3896016
0.5847143 0.6691683 -0.9629151 1.4774978 -0.27835906 -0.4793418 -0.31255063 -0.345792
0.77604055 0.46353883 -0.11721441 1.4126986 -0.72270375 0.26695797 0.3384501 0.43931368
0.34910265 0.35223827 0.09917648 -0.17433915 0.1496902 1.0488259 1.098668 -0.062032063
-0.6298074 -0.42639852 0.06075628 -1.0042452 -0.8213441 0.26067388 0.87016666 0.0057415836
-0.15269975 -0.6923194 0.596838 0.38053656 0.41355276 -0.6406427 0.35819778 0.31888613
-0.3985199 0.21985742 -0.4341729 0.8899679 -0.14958107 0.45553356 -0.3555857 -0.24958274
0.22645119 0.011618715 0.0687381 -0.45007858 1.2429106 -0.5752706 -1.2047802 -0.32740292
0.093925685 -0.27048782 -0.19303082 0.106150486 0.14564663 -0.056657117 0.046451554 -0.59015685
0.5639547 -0.061171547 0.48451272 -0.82776135 -0.43296096 -0.49689844 0.5854619 0.534435
0.44963312 -0.38398802 0.35179493 0.38849393 0.9593389 -0.35064968 -0.8460204 -1.1247424
0.6416877 -0.25920528 1.1277653 -0.12797071 0.6889063 0.12100174 -0.7399945 0.37736323
-1.6757911 -0.58844566 0.22500794 -1.3254118 0.7319882 0.3150659 -1.105843 -0.070731685
-0.12407898 -0.54593086 0.018147865 0.8426842 -0.29145467 -0.23635446 0.8535923 -1.4032339
-0.24535958 0.45948654 0.7995733 0.02659403 0.040637255 -0.63698405 0.89817274 -0.029473372
-0.17922644 1.2424875 -0.39942935 0.0764115 0.12505299 0.011098303 0.5138676 0.3264008
-0.5552302 -0.051221266 0.47690314 -0.18334264 -0.40490448 0.3720387 -0.37983987 -0.49369007
-0.4753005 -0.15912105 -0.047803666 0.21351309 -0.63764477 0.375528 0.4042765 -0.3570221
0.4750167 0.17579009 -0.33375186 0.114182934 -0.21354131 -0.22772577 0.90825135 -1.1179951
0.6260575 -0.15473369 0.27805656 -0.13559265 0.34751487 0.9962467 0.7663649 0.3047087
0.37629238 -0.23074645 1.0006652 0.26208135 0.51543915 0.8948292 1.2297363 0.83749443
0.44998407 -0.19578722 1.4837825 -0.55358905 0.71214324 -0.30740818 -0.74863815 0.6361045
0.2328772 0.23467377 0.75654656 -0.6269488 -0.029533355 -0.13963091 0.6211026 -1.1808131
0.21790937 -0.809904 -0.6681596 0.2954246 0.0793272 0.49050912 -0.6752655 -0.068460144

lstm.bias_ih_l0 f4 [256]
00000000: 81fb 95be 2e6d f2be d393 4e3b 7586 82bf
00000010: 9e5b fdbe 2cf7 80bf bc03 33bd 460d 0abf
00000020: 2d35 7fbf ccb4 8cbe cfff afbe 1f34 b53d
00000030: 7eae 47bf bbf4 1abf 39b4 0fbf 1806 62bf
00000040: 44df ddbe 3159 d33e 7c42 00bf edb4 21bf
00000050: c97b 11bf 9576 0bbe 4efc 6abe 5a0f 0b3e
00000060: af46 8ebe d52a 55be 446b 35be 5051 07be
00000070: 47c0 d13c 06ef 193f 3304 01be f13c ff3d
00000080: 3f6e 0e3d ff24 4abc 1771 6dbf 2564 14bf
00000090: bd0c babe 110a 683e f8e5 18be fbc7 873e
000000a0: b49c 81bd 1265 55bf dbbd ca3d 6cf8 ae3e
000000b0: 2fe1 a1be 65d1 1abf 3226 84bf fc66 283e
000000c0: 1292 04bf ee10 6abe 1358 79be 53c0 8cbe
000000d0: 251f 42bf 183b d63c c20a 68bf 57c1 99bd
000000e0: d493 1a3f 6d3b 92be b414 dabd e6ee dbbe
000000f0: ac61 07bf 7ddf 3cbf 2b7d eebe 49c8 c5be
00000100: f506 8abd d587 d4be 0333 32bf 4b4d cbbe
00000110: 9f77 9fbf dcfd d2be 41e3 a1be 597e 38bf
00000120: 8b1b 6cbf 8a2d 8fbf 41a3 173d 34df c2be
00000130: b8e8 06bf d8c8 1dbe 2ce6 89be a545 f2be
00000140: 12d1 8ebe 5088 78be 4650 54bf e5fa 2ebf
00000150: 41e0 0cbe 0543 77bf 4a39 93be 536a 45bf
00000160: bf3f 82bf f8a8 12bf dd1b b43e c717 c0be
00000170: 5870 62bf 2a5f 87be d42c b6be e00c 3fbf
00000180: 8990 c0bd 25a7 0f3f a3ab 80bf c589 a5be
00000190: f6d0 8abe fca0 4abd 642c a6be 5d9f aabe
000001a0: 7c0b f2ba fafe 48bf 77f1 85bf dc6e a4be
000001b0: 439e b4be f545 21bf 265a 97bf b76d 9abe
000001c0: 6e94 27bf 9ffb 60be 5e4a d7be f615 78bf
000001d0: 218c a2bd a05d c1be 53c6 27bf 4679 7abf
000001e0: 5655 44bf 9578 e2be 8b4d ebbe c7c9 16bf
000001f0: b33f 9fbe 76bd a4bf e07f 01be d731 4c3f
00000200: 3229 cdbe c674 ab3e 75ee 83be 3e02 dc3d
00000210: f5a2 5d3e f898 c5be e4ab 83be ce32 4f3e
00000220: 325f de3d 3b31 acbe a724 5f3d a8fc 50be
00000230: f3db 9e3d 3773 ba3e 3435 a33e f65b 67be
00000240: 5e4d 16bf c6e0 fb3e 1f4b 4c3e 6fb2 abbe
00000250: 5b07 403e 7233 9b3e c0c3 80be 533f fa3e
00000260: e0f6 92bd 33fa 1f3c 9bec 96be 68a0 a63e
00000270: f656 8cbc 7eae 84bd 96fb 62be 5b14 5cbd
00000280: 7198 ba3d ae9b b73c 79e5 30be fc5d 96be
00000290: 6d5c 4bbe 4e4a 463e 7217 9bbe 1aaa 17bf
000002a0: d32a 31be f1f7 2b3e a3dc bfbd 2888 423e
000002b0: c063 7a3e f165 0f3f 96e9 0c3f 9766 c9be
000002c0: 5dd5 8cbd 717f c83e cb1f 01be 3ebb 92bd
000002d0: 965a dbbe 701e e5bd bd92 b8be 9a9c c03e
000002e0: 186d ddbd 4544 563e 5d24 8abe 229d 14be
000002f0: 1526 09be 8a86 e53e 89b2 ae3e 6a3f 68bc
00000300: 9020 c2be 3665 6bbf 1aca 9dbe f9f9 71bf
00000310: 5e82 9bbf 2a83 2fbf 4501 39bf bc95 783e
00000320: e39f 64bf 02c1 8ebe b6ec 1dbe b952 dcbe
00000330: 61c6 32bd 569b 8a3e 53d8 72bf e6a3 33bf
00000340: 25ba 6ebf 0e05 11bf 5164 5b3b f993 0dbf
00000350: d288 23be 13ee b1be 4b2d 81bf 573e 77be
00000360: 5751 cbbd a2b9 53bf def0 36bf 9ee4 21be
00000370: 1c4a 1e3e 6f14 18bd a049 afbe 0f17 783e
00000380: 8f5d 9bbe d904 15bf 3446 82bf a279 d6be
00000390: 993e d2be 0147 4fbe 8ad6 26bf d177 7a3e
000003a0: 16cf 72bf 5fd0 cb3d fb73 1e3e 7207 7d3e
000003b0: 89f3 7fbf fd40 26bf 9b9a 89bf f190 013e
000003c0: df0a 8ebe d3f2 0a3e ad1b 88be 5e59 af3e
000003d0: 7d49 77bf 9590 26be 7934 1bbf 28ea ba3d
000003e0: 2995 8d3c 5cdd b8be 67d9 f2be a70f febe
000003f0: a893 0ebf d646 efbe 00b6 4bbf 9a1e 1fbf
-0.29293445 -0.47348922 0.0031521216 -1.0197283 -0.4948396 -1.0075431 -0.043704733 -0.53926504
-0.99690515 -0.27481687 -0.34374854 0.08847832 -0.7800063 -0.6052968 -0.5613437 -0.8829055
-0.433344 0.41278985 -0.5010145 -0.63166696 -0.56829506 -0.13619454 -0.22947809 0.13580075
-0.27788302 -0.2081712 -0.177167 -0.13214612 0.02560438 0.60130346 -0.12599258 0.124627955
0.034773108 -0.012337922 -0.92750686 -0.5796531 -0.36337844 0.2266009 -0.14931476 0.2651976
-0.06328717 -0.83357346 0.09899493 0.34173906 -0.31617114 -0.6047576 -1.0324156 0.16445535
-0.51785386 -0.2285802 -0.24350004 -0.27490482 -0.7582877 0.026151225 -0.90641415 -0.0750758
0.6038182 -0.28560963 -0.1064848 -0.42955703 -0.5288341 -0.73778516 -0.4657987 -0.38629368
-0.06739608 -0.41509882 -0.6960909 -0.39707407 -1.245838 -0.41209304 -0.31618693 -0.7206779
-0.9222953 -1.1185772 0.037020925 -0.38060915 -0.5269885 -0.15408647 -0.2693342 -0.4731876
-0.27893883 -0.24270749 -0.8293499 -0.68351585 -0.13757421 -0.9658664 -0.28754646 -0.7711536
-1.0175704 -0.57289076 0.35177508 -0.3751814 -0.8845267 -0.26439792 -0.35581076 -0.7462902
-0.09402568 0.5611442 -1.0052379 -0.32331672 -0.2711255 -0.049469933 -0.32455742 -0.3332471
-0.0018466557 -0.78514063 -1.0464314 -0.3211583 -0.35276994 -0.6299737 -1.1824386 -0.3016183
-0.6546086 -0.21970986 -0.42048925 -0.9690851 -0.07936884 -0.37766743 -0.65536994 -0.978413
-0.7669271 -0.44232622 -0.45957598 -0.5890164 -0.31103286 -1.2870319 -0.12646437 0.7976355
-0.40070492 0.3348753 -0.25767866 0.10742615 0.21644194 -0.38593268 -0.2571708 0.20234224
0.10858001 -0.3363131 0.054478314 -0.2040888 0.07756796 0.36416027 0.31876528 -0.22593674
-0.587118 0.49194926 0.19950531 -0.33534572 0.18752806 0.30312687 -0.25149345 0.48876438
-0.07175994 0.009764242 -0.2947739 0.32544255 -0.01713131 -0.06478594 -0.22166285 -0.05373035
0.09111107 0.022413101 -0.17275037 -0.2936858 -0.19859476 0.19364282 -0.30291325 -0.5924393
-0.17301492 0.16793801 -0.09368255 0.18997252 0.24452114 0.56014925 0.55043924 -0.39336082
-0.06876633 0.3915973 -0.12609784 -0.0716462 -0.4284255 -0.11187446 -0.36049452 0.37619478
-0.108118236 0.2092448 -0.26980868 -0.14513066 -0.13393433 0.44829208 0.34120587 -0.014175275
-0.37915468 -0.9195131 -0.30818254 -0.94522053 -1.214916 -0.68559515 -0.7226756 0.24275869
-0.8930647 -0.27881628 -0.1542233 -0.43031862 -0.04364622 0.27071637 -0.94861335 -0.70171964
-0.93252784 -0.5664834 0.0033476541 -0.55303913 -0.15970162 -0.3475195 -1.0091947 -0.24144875
-0.09927624 -0.8270513 -0.71461284 -0.15809867 0.15457958 -0.037128862 -0.3423586 0.24227546
-0.30344817 -0.5821052 -1.0177674 -0.41889673 -0.41063383 -0.2024193 -0.6517111 0.24459769
-0.9484724 0.09951853 0.1547393 0.24709871 -0.9998098 -0.64942914 -1.0750307 0.12652947
-0.2774267 0.13569193 -0.26583615 0.3424787 -0.9659651 -0.16266091 -0.6062694 0.09126693
0.01728304 -0.36106384 -0.4743149 -0.49621317 -0.55694056 -0.4673373 -0.79574585 -0.6215607

lstm.bias_hh_l0 f4 [256]
00000000: c4c7 fdbe 784c 06bf 1edf 8ebd 4604 73bf
00000010: 2c5a f0be fd69 84bf 9c72 283d 97d0 20bf
00000020: 671e 6abf 1611 dcbe 7c82 9ebe f996 593d
00000030: 3b1b 15bf 3812 0bbf d386 21bf 96ae 3dbf
00000040: 743e eabe f3d5 f13e 955d 03bf ebb2 3bbf
00000050: 83d8 b5be eabc e3bd a43d f1bd a0e7 3dbc
00000060: b3c3 51be bc2d 27be 8e50 a2bd 44c4 b0bd
00000070: 7464 edbd 7101 2e3f 5637 1ebe d420 493e
00000080: 029f 323c 5493 cd3b 7962 7ebf 24f9 1bbf
00000090: f287 f8be 33a0 fd3d 99bb bbbe 63dc 8b3e
000000a0: b1b1 2abd 81ef 18bf d116 233e 67f4 583e
000000b0: f8a7 1abe ff35 15bf 5ff5 8fbf f02f 463b
000000c0: e873 1fbf 7d9c d9be 6901 71be 20f7 6fbd
000000d0: d7eb 35bf 82e2 11be f58f 31bf a503 4cbe
000000e0: cb44 263f bf25 89be da8f 8fbe 6ea7 92be
000000f0: 0ebf ffbe 42c9 12bf 42b2 07bf 56b4 98be
00000100: 49ea 85be 0e0c e5be f079 64bf 4b38 9dbe
00000110: 75c6 a8bf d8a0 02bf d55c c4be 79ad 2fbf
00000120: 38ba 67bf 64d4 9abf 091e a5bc f4d0 dcbe
00000130: f17e 30bf e42d 32be 8e0f 08be 8329 92be
00000140: 6d73 ccbe d998 b7be a6f0 39bf 0f63 3dbf
00000150: f585 513d 5d5f 65bf d4f5 bfbe f8be 49bf
00000160: 4ba4 61bf b807 debe d2eb 503e dda2 7dbe
00000170: fdba 4bbf 73d8 74be 639b acbe 9651 42bf
00000180: 75b6 2abe c784 b93e b88c 65bf 2198 95be
00000190: 058f d1bd 982f babc e1a1 30be 8493 cdbe
000001a0: ec62 55bd d53e 59bf c81a 76bf 66e0 b2be
000001b0: ed5e e6be e721 0abf 849a 97bf b129 91be
000001c0: e968 26bf 1569 14be b30e 05bf 370c 7bbf
000001d0: b9fb b1bd 29b1 1fbe 939a 07bf ab4d 95bf
000001e0: 4828 40bf 4910 bbbe d319 f9be b6eb 3abf
000001f0: fe8e acbe 1e8a 9ebf bfa9 87be ed8a 443f
00000200: 2e3b 0fbf 61a1 823e 971d fbbd 016c 203e
00000210: d576 573e e8f6 82be db1f 6bbe d17e 9a3d
00000220: 5f48 d7bb 0057 b5be 0641 18be ff33 93be
00000230: c96a 9d3b ff58 a53e 598e bb3e 4a3a 82bd
00000240: 8fd9 21bf 2c6d fc3e e694 ed3d d03f cabe
00000250: 45a1 ec3d e2fb da3e e478 d0be 016c bc3e
00000260: 57d1 a33d 4bfd 063c 6604 d1be 0d74 a63e
00000270: 9418 7dbb aabe eabb 94e4 61be 27cc 023e
00000280: 276d 233b 5518 603e 7fc7 4fbd 3e6c b2be
00000290: 2f16 07bd 14e0 7e3e 04fd b3be fc4f 1cbf
000002a0: 1544 29be 6b8a 213d 11a5 44be 37c3 e43d
000002b0: 6be7 943e 0626 f73e dde1 013f fb8c 01bf
000002c0: e6ee b0bd 9605 bd3e 0251 4dbe 6606 dabd
000002d0: c1aa c1be d933 58be b21a bfbe e9e6 a83e
000002e0: d299 523d 07fc 1c3e fda2 3abd 4744 1b39
000002f0: 7432 42be 7bfe bd3e 284a ae3e c8fa 39be
00000300: 1f5f 16be 9ee1 56bf 5132 96be 3d91 3fbf
00000310: 8a9b a0bf 8ac9 2dbf d549 57bf a963 d93d
00000320: 6085 43bf 8da8 08be d85b adbd 62fc b1be
00000330: a2cf 5dbe c98e 3a3e 04e3 61bf dcf0 3abf
00000340: 2406 6ebf 72e6 f1be c6d3 38be 0aae 31bf
00000350: 1926 04be 1907 dbbe 3dcb 68bf 1ba9 d3bd
00000360: fffa 01be 23e7 80bf 1dca 49bf a16c 91bd
00000370: 8973 bf3e 3f83 74be 5bd0 a0be 851e 7e3e
00000380: d8ea 1dbe 7827 0fbf 05e3 92bf e7ac 04bf
00000390: 2cd1 bcbe ea35 a7be 38cb 10bf 2071 c93e
000003a0: 0b7c 58bf b4d8 4b3d 5c7e 363e cf3d 2b3e
000003b0: bc20 7cbf 7177 f0be b3d1 90bf 4885 683e
000003c0: c56b 64be 6de0 51bd 5dd8 dfbd b46b 0d3e
000003d0: 9ce2 69bf 16d2 e5bd 929c 0fbf a6cc febd
000003e0: f710 1b3e 57cc 78be b3ee fabe 516a 13bf
000003f0: 3d51 11bf 9338 d1be 6c2e 49bf 4a82 05bf
-0.49566472 -0.5246043 -0.0697615 -0.94928396 -0.46943796 -1.0344845 0.041124925 -0.6281828
-0.9145264 -0.42981786 -0.30958927 0.053122494 -0.58244675 -0.54324675 -0.6309635 -0.7409452
-0.45750773 0.47233543 -0.5131467 -0.7331988 -0.35516748 -0.11120017 -0.11779335 -0.011590868
-0.2048481 -0.1632604 -0.07925521 -0.08631185 -0.115914255 0.6797095 -0.15450796 0.19641429
0.010902168 0.0062736664 -0.9936901 -0.60927033 -0.48541218 0.12384071 -0.36666563 0.2731658
-0.041673366 -0.59740454 0.15926673 0.21186982 -0.15103137 -0.58285517 -1.1246756 0.0030240975
-0.62286234 -0.42502204 -0.23535694 -0.058585286 -0.7106299 -0.14246562 -0.69360286 -0.19923265
0.6494872 -0.2678661 -0.28039438 -0.28643364 -0.4995045 -0.57338345 -0.53006375 -0.29825085
-0.26155308 -0.4473576 -0.8924856 -0.3070701 -1.3185564 -0.5102668 -0.38352075 -0.68624073
-0.9051852 -1.2096066 -0.020155923 -0.4312817 -0.689437 -0.17400318 -0.13287184 -0.28547296
-0.39931813 -0.358588 -0.72632825 -0.73979276 0.051153142 -0.8959864 -0.3749224 -0.7880702
-0.88141316 -0.43365264 0.20402458 -0.24769159 -0.79582196 -0.23910694 -0.337123 -0.7590574
-0.16671164 0.36234114 -0.89667845 -0.29217628 -0.10232357 -0.022727773 -0.17249252 -0.40151608
-0.052096292 -0.848615 -0.96134615 -0.34936827 -0.44994298 -0.5395798 -1.184403 -0.2835212
-0.6500383 -0.1449321 -0.51975554 -0.98065513 -0.086905904 -0.15594925 -0.52970237 -1.1664327
-0.75061464 -0.36535862 -0.48652515 -0.73015916 -0.33702844 -1.23859 -0.26496693 0.76774484
-0.55949676 0.25513747 -0.12261503 0.156662 0.21041425 -0.25579 -0.2296137 0.075437196
-0.0065699066 -0.35417938 -0.14868554 -0.28750607 0.0048039895 0.3229446 0.3663204 -0.06358774
-0.63222593 0.49302042 0.11600666 -0.3950181 0.11554197 0.42770296 -0.40717232 0.3680115
0.07998913 0.008239101 -0.40823668 0.32510415 -0.0038619386 -0.007163842 -0.22059852 0.1277319
0.0024936886 0.21884282 -0.050727364 -0.34848207 -0.03298014 0.24890167 -0.35153973 -0.61059546
-0.16529877 0.039438646 -0.19203593 0.11170047 0.29082808 0.48271197 0.50735265 -0.50605744
-0.08639316 0.36918324 -0.20050433 -0.10645752 -0.37825587 -0.21113528 -0.37325054 0.3298867
0.051416226 0.15330516 -0.045565594 0.00014807387 -0.18964559 0.37108216 0.34040952 -0.18162072
-0.14684723 -0.83938015 -0.29335263 -0.7483099 -1.2547467 -0.6788565 -0.84097034 0.10614712
-0.7637539 -0.13345547 -0.084647834 -0.34762865 -0.21661237 0.1821853 -0.88237023 -0.7302377
-0.9297812 -0.47246128 -0.18049535 -0.6940619 -0.12905158 -0.42778853 -0.90935117 -0.10334989
-0.12693404 -1.0070537 -0.78824025 -0.071007974 0.37392834 -0.23878191 -0.31408963 0.2481633
-0.15421617 -0.559196 -1.1475531 -0.5182633 -0.36878335 -0.3265832 -0.5656009 0.3934412
-0.84564275 0.04976721 0.1782164 0.16722797 -0.9848745 -0.46966127 -1.1313995 0.22707093
-0.22306736 -0.05123942 -0.1092994 0.13810617 -0.91361403 -0.11221711 -0.5609828 -0.12441377
0.1514319 -0.242967 -0.49010238 -0.575841 -0.56764585 -0.40863475 -0.7858646 -0.5215193

lstm.weight_ih_l1 f4 [256, 64]
00000000: 3f8d de3e 9f31 59be cec3 88be c414 5ebf
00000010: 3e20 f3be 5e58 aabe 8e71 7cbe 8cc5 01be
00000020: 2326 02bf 7ae2 033f 9b5b 5bbe 69cc a63e
00000030: 99c5 20be 12b1 c93e 0d43 ab3e 4737 67be
00000040: c297 cabe 3d44 23be 3233 293f 351b 5d3f
00000050: adc4 93bf 49af bdbd 418d 7dbd bdf6 993e
00000060: afc2 0c3f 8e2e 30be 8c31 b83f 689e a43d
00000070: 837d 3bbf ab9e 8fbf 3625 9bbe 4fbf bc3f
00000080: 1677 c93e 05b9 183f c03b 98bf 8079 a9bf
00000090: f09f 9dbe 5411 efbe cac7 cb3e 7b12 ae3d
000000a0: 3eba ad3d fe97 623d 7e21 c33e 04c6 9b3d
000000b0: 2455 803f 072e d33f ca96 173f 8c47 ddbe
000000c0: 5787 5a3f f81b 3e3f a1db 64be 7ed4 a13e
000000d0: 7802 89bf d8ba 3fbf 6268 fbbd 44fe 2ebb
000000e0: b405 03bf 68b0 9ebe b08a 1f3f 9db2 f5be
000000f0: f2da 83be b1eb 54bf 1905 7ebf 4689 b2ba
00000100: 7d19 72bf 2109 cabd 0719 c7bc 429e 33bf
00000110: 2b48 52bc 9d4b ec3e 5fd4 293f 0622 5f3e
00000120: 3036 8cbe e5ef dbbe 0d11 54bf 5df8 97be
00000130: 808a 813e 5489 7fbe 920f 81be b87c 0c3f
00000140: 5ca7 c63e efbf d8be 0c51 103f cb22 603e
00000150: e790 e9be 94ea d63e 82c3 9e3e 8b3e f93e
00000160: 0f69 213f 571c b83f bdb4 41bf 7562 75bf
00000170: 7f1b 2abe 7b09 42be 8796 ca3f 1c1b 48bf
00000180: 3fd2 653e 6f0e 1abf 3d28 a9be a13a 32be
00000190: 87bc cb3e 9ca5 083f 4a20 963f d9f8 713f
000001a0: 58c3 143e acb7 02bf 4c6b b83e 4e7f 9dbf
000001b0: 5ae6 0cbf 8d1f 363f 981c 8a3f 54e5 683f
000001c0: 6a09 6c3f ac6f 56be 98b1 113c ea54 81bf
000001d0: 71ed 14be 6de0 0a3e 3347 213f 252e f33e
000001e0: 1cc3 24bf eac5 06bf 698f 333f c7fc 013f
000001f0: b881 cb3e 3943 97bf b795 a3be be35 bbbe
00000200: 4731 0c3f f416 a1be 4965 e03e 8261 863e
00000210: 55c3 6f3e 412b 83bd 0d7a 19be 8a65 583e
00000220: 361c 393e abe0 01bf b0b6 dfbb bb3a 67bf
00000230: f661 a23f 9b68 113f 0174 a2be d4bc 39be
00000240: 1e93 06bf 823d 86bf 2a21 27bf afe3 0fbf
00000250: 27e4 143f 3706 983e d4ac bfbd bf62 10bf
00000260: 3ba2 37bf f1f4 f2be c579 953d 71e6 2c3f
00000270: 210c 49bf 81c8 063f 737a 613e 804b 0940
00000280: ac28 03bf bd2b a0be de67 813f 25ef c53e
00000290: da05 01bd c3a6 cbbd d4c5 f93d b3f8 b7bd
000002a0: 702f dfbe 0aaa 12bf 3aa7 13bf 74d8 bc3d
000002b0: cf4e 213e f053 6e3f 6aef ac3e 2126 4fbc
000002c0: f50e 76bf 6510 74be 1441 063e ea43 61be
000002d0: 987f c03e a616 593d e3ae a2be 0221 813b
000002e0: 7d72 f1be 443d 5abf 67cc 553f b8f5 d2be
000002f0: 2517 183e 1b0b 173e 8a6a 5d3f faf0 823f
00000300: d634 0c3f f392 f7be 50ed 1a3f 182a 793f
00000310: a887 443d 9bdb 903e 69f1 08bf 0872 20bf
00000320: 93a9 3dbe ab60 18be 7342 d83e a270 a13f
00000330: 5722 d5be d164 6bbe 4f82 a33d b47a de3e
00000340: c378 8fbf 1a01 053e 6f3f bf3e 5ee3 1dbf
00000350: c6ec cfbe 064a a73d 3f43 053f becb 06bf
00000360: b625 f7be edbb dabc 9e89 1cbe e6ce 183d
00000370: 70ea 0b3f ff62 10be 89a5 3abe a843 9c3f
00000380: af37 7a3e 062a c33d 749a 9b3e 2f9e c6be
00000390: 43ea 06bf f271 c6be e90d 903e dd1e 083f
000003a0: 5e5c 8d3e e1bf c43e c34f 8d3f a739 eb3e
000003b0: 7005 8b3f 5bb4 723f c976 febe fad8 ef3e
000003c0: a76b 9b3e 26e9 803f 5c5e 173a 075a 94bf
000003d0: 62ea b7be 1cf4 19bf 19e6 91be 2bab a5be
000003e0: 83da e23e ab00 6a3d 9d6a 20be 4360 2f3f
000003f0: a172 57bf 046a 193e ce23 d7be a790 97bf
0.43467137 -0.21210335 -0.26711887 -0.86750436 -0.47485536 -0.33270544 -0.24652693 -0.12673014
-0.5083944 0.5151745 -0.21421663 0.32577828 -0.15700378 0.39392906 0.33449593 -0.2257968
-0.39568907 -0.15944 0.6609374 0.8636964 -1.1544396 -0.092619486 -0.06190229 0.3007106
0.54984564 -0.17205259 1.439012 0.08038026 -0.7323839 -1.1220297 -0.30301827 1.4745883
0.39348668 0.5965732 -1.1893234 -1.3240204 -0.30786085 -0.46692908 0.39800864 0.084996186
0.084827885 0.055320732 0.3811149 0.07606128 1.0025983 1.6498421 0.5921446 -0.43218648
0.8536276 0.74261427 -0.22349407 0.3160743 -1.0703878 -0.74894476 -0.12275769 -0.0026701847
-0.5118058 -0.30993962 0.62320995 -0.47987834 -0.2575298 -0.83172137 -0.9922653 -0.0013621233
-0.9457014 -0.098650225 -0.024303926 -0.7016336 -0.012834589 0.46151438 0.6633968 0.21790323
-0.27385092 -0.42956463 -0.8283852 -0.29681674 0.2530098 -0.2495473 -0.25207192 0.54877806
0.3879956 -0.42333934 0.5637367 0.21888272 -0.45618364 0.41975844 0.31008536 0.4868053
0.6305093 1.4383649 -0.7566641 -0.9585336 -0.16612051 -0.18948929 1.5827187 -0.78166366
0.22443484 -0.60178274 -0.33038512 -0.17405178 0.39792272 0.533777 1.1728604 0.94520336
0.14527643 -0.5106151 0.3601936 -1.2304475 -0.5503899 0.7114189 1.0789976 0.90974927
0.92201865 -0.20941037 0.008892439 -1.0104039 -0.14543702 0.13562174 0.62999266 0.47496143
-0.64360213 -0.5264574 0.701407 0.5077633 0.39747405 -1.181739 -0.3195016 -0.3656444
0.5476269 -0.31462824 0.43827274 0.26246268 0.23414357 -0.064047344 -0.14987965 0.21132484
0.18077168 -0.5073344 -0.006827198 -0.9032399 1.2686145 0.5680024 -0.3172913 -0.18138438
-0.52568233 -1.0487521 -0.6528498 -0.5620679 0.5816063 0.29692242 -0.09359136 -0.56400675
-0.7173192 -0.474525 0.07298616 0.67539126 -0.7853413 0.52649695 0.22019367 2.1452332
-0.51233935 -0.3128337 1.0109823 0.38659015 -0.03149972 -0.09943917 0.12195936 -0.089829825
-0.4359088 -0.5729071 -0.5767704 0.09220973 0.1575272 0.9309683 0.33776408 -0.012643368
-0.9611657 -0.23834379 0.13110763 -0.21998563 0.37597346 0.053000115 -0.31774053 0.0039407024
-0.4715766 -0.85249734 0.8351502 -0.41203094 0.14852579 0.1475033 0.8649069 1.022979
0.5476812 -0.483543 0.6051836 0.97329855 0.047980934 0.28292546 -0.5349336 -0.62674
-0.18521719 -0.14880626 0.42238197 1.2612498 -0.41627762 -0.22987677 0.07983839 0.4345299
-1.1208729 0.12988701 0.37353083 -0.6167506 -0.4061033 0.08168416 0.52055734 -0.52654636
-0.4827096 -0.026700938 -0.15286872 0.03730669 0.546546 -0.14100264 -0.18227209 1.2208147
0.24435304 0.095295 0.30391276 -0.3879256 -0.52701205 -0.38758808 0.28135613 0.53172094
0.27609533 0.38427642 1.1039966 0.45942423 1.0861034 0.9480645 -0.497 0.46845227
0.3035557 1.0071151 0.00057742535 -1.1589974 -0.35921007 -0.60138106 -0.28495863 -0.32357153
0.44307336 0.057129543 -0.1566567 0.6850626 -0.84159285 0.14981848 -0.42019504 -1.1841019

lstm.weight_hh_l1 f4 [256, 64]
00000000: 033e 0bbf 5b57 a5be ada9 213f 0f90 f3be
00000010: 9329 fabd 9cf2 3d3f cf97 823d 1310 8b3c
00000020: bbdb 533e 7edb c4be 963b 2ebf 3ed7 08bf
00000030: d9d5 76bd d7c1 6bbf e676 023f 706e 933f
00000040: 8305 cf3e 405b 8d3d 6262 b13e 7ed8 f1be
00000050: 4ac7 523f 46a9 833f f010 693e 6e8b 4abe
00000060: bb70 d03e aeb7 34bd 3182 66be b9ea 803e
00000070: cabe efbe ae89 c43d bf5e 4d3f 2389 2c3f
00000080: c24e 8abf 8a0b 1c3f 1528 12bf f49c 98be
00000090: 6d49 8dbd 48b5 2c3f 1f73 48be be44 8ebf
000000a0: 585c 97be a47c 063e a931 503e 92a2 063d
000000b0: b459 dc3e 42ed fb3e 3008 063f fa31 593f
000000c0: 1502 16bf a9d4 813d 2ac2 4ebf 6745 903e
000000d0: 55cf 073f f2b3 1cbf dcf5 90bd 48fb e93e
000000e0: 55c2 a3bc d333 4abe fb20 903f 1a0a 7abc
000000f0: 11c6 36bf 1ff8 efbe db3d c93e fe7b bbbf
00000100: bee6 93be 0f69 263f 2e0b 313f ef8c 9ebe
00000110: d2f4 283d 57f2 3bbf a5a0 39be 4cac e63e
00000120: 9e2f 8f3e feac a33e 999a 473e c952 97be
00000130: 4380 83bf 59ee 813c 2040 123f d6db 403e
00000140: 9a45 833f b6ab 04bf 08fa 15bf 0e0c e73e
00000150: dd34 603e d7f0 5e3d 0139 31bd 25d3 80bd
00000160: 6a60 40bf 4aaf 18bf e910 283f 8791 98bf
00000170: cfbd 683e 9768 123f 4bad e53e b7e2 183f
00000180: e133 17bf bcaf 84be bfa9 24bf 6e9c d93e
00000190: d274 da3d d885 043f 3afc 5e3d a373 52be
000001a0: 5e72 a7be 1607 d4bc e2b2 67bf 8e43 0fbf
000001b0: c008 1e3f 3eea b9be 8538 a13e baa2 9bbd
000001c0: 183f 0dbf 2179 be3e f23b 0c3e 0b83 68bd
000001d0: bf85 503c f94a 8c3e 7e1b 7bbe 4d5a 9aba
000001e0: f1d6 aebe fc44 e83d 2cf7 06be 5f0a 51bf
000001f0: 27c1 933e 7d9c 92be 19d8 31bf 22ab adbb
00000200: 74b9 abbe 8ede febe a792 673e 5664 2e3e
00000210: b622 3e3d 8df9 bdbe 6b9a d43e def4 033f
00000220: 7520 c0bc 4eaf a63d dd08 b03e 62b3 d2be
00000230: b222 13bf 18e6 fcbe ccfe d63e bdad 2e3f
00000240: 8674 ebbe 3e23 6fbf 4c4c b93e 7a98 123f
00000250: 5a77 af3e 1ba8 093e 87fd 13bf 4f43 c23e
00000260: e64d e7bd 2da6 86bf 4ddf c1bd 3884 0a3f
00000270: 2398 c93e 7182 db3e 8d70 88bd 62a5 8a3e
00000280: 047c 993f 97a1 05bf c116 8bbe ac0e 7dbe
00000290: 4ef8 8f3e 9523 d33e e820 72be 2020 56be
000002a0: 01c8 d8be c8b1 eb3e e3e7 10bf 6ffc 3bbf
000002b0: c73f 50bd 3ac2 283f e327 59be 3feb 07bf
000002c0: 2756 9a3a 2a21 b13e 6851 f7bd 854a ccbe
000002d0: df49 af3e 0c5e 2d3e 25c4 08bf f1e8 7cbe
000002e0: 94e5 81be ae73 b93c e882 26bf b2ba f4be
000002f0: e4e1 683e 3f24 15be c55c cfbe 09cb 01bf
00000300: ae28 37bf 44b6 653e 8386 883d 7829 36be
00000310: 678b b5bd c362 9d3d 52af 13bf 8a11 0dbf
00000320: 062f 3d3e 2f24 17bd 23cd c7be 1547 cfbe
00000330: c5e6 803e 05b6 40be 7c07 9cbf e21b 413f
00000340: 6602 703f bd5c 8dbe 3fae b93e 3c08 65be
00000350: c738 4d3e 93ca 693e d7a2 09bc f1e8 9cbf
00000360: 4acd 6fbf da8d 35bf 7d22 84be a9b7 29bf
00000370: f5d5 263f 3a6c 39be 0321 8f3f 0712 f43d
00000380: 152d 0c3f 3144 06be d40a ef3e c2c8 5c3e
00000390: 22a2 923d 91c5 8bbe 172c 553d 3d01 efbe
000003a0: 6b94 8bbe 8940 aa3c 723c 2c3f ae5b d53e
000003b0: 5748 103e acea 55bf 440a 37bd e738 c93e
000003c0: 165e f23e d035 61be 3811 e53e eb9d 06be
000003d0: 1497 c8bd 454a 62be 3c98 f03e eb5b e43d
000003e0: bb77 02be 1946 92be 7e52 abbe b996 05bf
000003f0: 5fbd 493d 70a8 99bd 8fc1 2d3e e92a fd3e
-0.543915 -0.3229321 0.6314953 -0.47570845 -0.12214961 0.7419832 0.063766114 0.016975438
0.2068929 -0.3844871 -0.6805967 -0.53453434 -0.060262535 -0.9209265 0.50962675 1.1518078
0.40433893 0.0690217 0.34645373 -0.47235483 0.8233534 1.0286033 0.22760367 -0.1977975
0.40711007 -0.044120483 -0.22510602 0.2517908 -0.46825248 0.09596573 0.80222696 0.67396754
-1.0805285 0.6095511 -0.5709241 -0.29807246 -0.068987705 0.67464113 -0.19575165 -1.1114728
-0.2956264 0.13133484 0.20331444 0.032869883 0.43037188 0.4920445 0.52356243 0.84841883
-0.58596927 0.0633939 -0.8076502 0.2817795 0.5305074 -0.61212075 -0.07078144 0.45699525
-0.019990126 -0.19746332 1.1260065 -0.015261197 -0.71395975 -0.4686899 0.39305004 -1.4647214
-0.2888698 0.65004057 0.69157684 -0.309669 0.041249104 -0.73416656 -0.18127687 0.45053327
0.27966017 0.3196792 0.19492568 -0.29555348 -1.0273517 0.015860723 0.57129097 0.18833861
1.0255616 -0.5182451 -0.5858464 0.45126384 0.21895166 0.0544289 -0.043267254 -0.062902726
-0.75147116 -0.5964247 0.656508 -1.1919411 0.22728656 0.5719084 0.44858775 0.5972094
-0.59063536 -0.25915325 -0.6432151 0.4250216 0.10666813 0.5176673 0.05443976 -0.20551924
-0.32704443 -0.025882285 -0.9050733 -0.55962455 0.617321 -0.36311525 0.31488433 -0.07599397
-0.551744 0.3720179 0.13694742 -0.056765597 0.0127272 0.2740095 -0.24522206 -0.0011776179
-0.34148362 0.11341283 -0.13180226 -0.8165645 0.288583 -0.28635016 -0.69470364 -0.0052999416
-0.33539927 -0.4977917 0.22614537 0.17030463 0.04641982 -0.37104455 0.41524062 0.5154551
-0.023452977 0.081389055 0.34381762 -0.41152483 -0.57474816 -0.49394298 0.4199127 0.68233854
-0.45987338 -0.9341315 0.36191022 0.5726391 0.34270746 0.13443033 -0.5780873 0.37941977
-0.11294155 -1.0519463 -0.09466419 0.54108 0.39373884 0.42872956 -0.06662092 0.27079302
1.1990972 -0.5219969 -0.27165797 -0.24712628 0.2811913 0.41238084 -0.23645365 -0.20910692
-0.4234009 0.46034074 -0.5660383 -0.7343206 -0.050842073 0.65921366 -0.21206622 -0.5309333
0.0011774943 0.34595615 -0.12076074 -0.39900604 0.34236047 0.16930407 -0.5342429 -0.24698235
-0.25370467 0.022638168 -0.650435 -0.47798687 0.2274242 -0.14564608 -0.40500465 -0.5070043
-0.7154645 0.2243281 0.06666281 -0.17789257 -0.088644795 0.07684853 -0.5768939 -0.5510489
0.1847497 -0.03689974 -0.39023694 -0.4048392 0.25176063 -0.18819435 -1.2189784 0.7543317
0.9375366 -0.27609816 0.36265752 -0.22366422 0.2004119 0.22831182 -0.00840064 -1.2258588
-0.9367262 -0.70919573 -0.25807562 -0.6629587 0.6517022 -0.18107691 1.1181949 0.11917501
0.5475629 -0.1311195 0.4668795 0.21560958 0.07159831 -0.2729917 0.052044 -0.46680632
-0.2726167 0.020782726 0.6727973 0.4167151 0.14090095 -0.83561206 -0.044687524 0.39301226
0.47337407 -0.21993184 0.447397 -0.13146178 -0.09794441 -0.22098644 0.46991146 0.111503445
-0.12740986 -0.28569105 -0.33461374 -0.5218311 0.049252864 -0.0750283 0.16968368 0.494468

lstm.bias_ih_l1 f4 [256]
00000000: 404f 85be dc96 bbbe 85ee d2be 774b fabe
00000010: 164b edbe d1be 68bf 0f0b d8be 01f7 0ebf
00000020: da79 31bd a843 09bf f4c2 3bbc 2e95 8cbf
00000030: a203 8abe 99fa 2ebd 6594 f5bd ae60 34bf
00000040: 01da 83bf 252c 25bf aeab 813d e486 b7be
00000050: a355 2dbe 1b93 2abf 857e c0be ac61 7dbf
00000060: 5150 25bf d1ca c4be fc41 babe bb99 86be
00000070: 3822 52bf 25ae 5cbe 4f49 eabd a7ff 4dbf
00000080: a128 f8be 246a 4fbf 31a1 eabe 791d eabe
00000090: b6e4 54bf 9662 22bf a2db 00bf f85f 09bf
000000a0: 261a b4bd 932a 2abf d0f2 2bbe 48a0 08bf
000000b0: 95a7 94be 2a45 b33c bc81 55be c91d 00bd
000000c0: 79d7 6dbf 963a 15be b08f 47bf 9f89 89be
000000d0: 649e cebe 8645 55bf 2795 c7be 3eb6 dbbe
000000e0: faca 55bf 60d5 09bf cb3a fbbe 4053 53bf
000000f0: c5ae bdbe a43e b93d f4b8 c1be 267d 81be
00000100: e102 92be 5fed 60be 71c1 bbbe a283 10bf
00000110: b1ff f5be a772 2bbf bdfc eabe 43fc 32bf
00000120: 19d1 53be d218 00bf a5cc 49bf 8df7 97be
00000130: cb03 87be a845 31be 6c95 1cbe 303a 3dbf
00000140: 8063 32bf f292 2ebf ddce 51be b353 32bf
00000150: 7973 48be f953 afbd 7a9f 23bf bfa2 51bf
00000160: ae62 94bf 7c31 12bf 8d34 49bf 39c7 d6be
00000170: 7110 eebe 806b e7be af77 4fbf 012a 91be
00000180: 92f0 14be 6732 bebe ede8 1d3e d6e3 87be
00000190: 186c 43bf fbe8 65be 91b6 98be f463 1abf
000001a0: 2d7b bcbe bc63 8abe 4bc0 8abf c1b1 94be
000001b0: d194 82be bd8a 01be 1bbb a3be 51c9 11bf
000001c0: b919 10bd 85e9 c3be 95fd 3bbf 7e8b d6be
000001d0: 3f95 15bf 749b e8be aea3 86be 5b04 10bf
000001e0: 15ef b23c 4bd3 00be 20d4 4ebf 449e 05bf
000001f0: c2ea b4be 0b45 97be be7e 9cbe f638 4ebf
00000200: 97c0 183f 2b13 be3d f720 50be be46 07be
00000210: 3e6d 593e f844 2a3e 0904 2e3e 371b e7bb
00000220: fd2b fe3e 0a50 9d3d cb14 2fbe 8d66 333c
00000230: 45e7 a2bb a642 1b3e 9e6e 123e 86af 9cbd
00000240: 09f8 83be 06c8 85bd 5e1e c7bd 5627 a3be
00000250: f4bb edbb 1d7d d0bd 0496 07bd f8ad 3a3e
00000260: cfbd e6bd a931 bbbd 709d 863e e50b c73e
00000270: dd30 a33d 20ce 77be 7694 82be b6a5 183e
00000280: c85d 393e 9d49 a7bd 3ed5 9d3e a78e 81bc
00000290: aa2d c63e 6676 213e 07c6 08be f464 1c3e
000002a0: 3bb4 afbe e149 b7bc 3778 433e 4505 9a3c
000002b0: 4444 b03e 591d 973e 5fdc 8ebe 6dca f1bd
000002c0: ac52 723e 4727 cfbc af26 9a3d 76db c33d
000002d0: add5 e7be be3d e23e 644f 4b3e e323 e13d
000002e0: 0ae6 efbd 6720 b5bd 60f7 85be a5ef 30be
000002f0: ec75 e73d 6da4 443b 0bf6 da3d c8be 5dbd
00000300: 783e 57bd baed 99be dc1b 45be d52e f0be
00000310: 6e7f 1abf 4cd8 1ebf 60de dbbe 8d64 12bf
00000320: aa26 973e ed3e dabe 817e cbbe 876b 72bf
00000330: 179b 39be decf a0be 07bb 04bf 7b0f cabe
00000340: a852 23bf ebd2 0cbf 2910 e6be b8f7 e0be
00000350: 82ad 28bf 1fcc 24bf eafd 00bf 58fa 83bf
00000360: 00b7 49bf 43db ebbe f9e5 0abe 299a d7be
00000370: a516 2ebf 58e1 11bf 4c75 35be b131 74bf
00000380: 59e5 4ebf d3dd 69bf bea5 3ebf 4289 0abf
00000390: 4fcc 4fbf be4e 43bf 9f91 90be 85c7 cdbe
000003a0: ab29 74be 0892 21bf 690a 023d 2d7f 1fbf
000003b0: 452f 0dbf 9a86 03bf ae46 14be f4ec 38be
000003c0: e564 0fbf e12e 16bf ad41 14bf a748 e2be
000003d0: a861 a5be 445d 82bf cac7 cdbe 0609 0abf
000003e0: fe26 0abf 1270 c8be 174b 62be 143b 2fbf
000003f0: 2385 1abf 9c2c 1fbf e90f 79be 6820 61be
-0.26037025 -0.36638534 -0.411976 -0.488857 -0.4634635 -0.9091616 -0.42195937 -0.5584565
-0.043329097 -0.5361886 -0.011460055 -1.0983026 -0.26955897 -0.042719457 -0.11991195 -0.7046002
-1.0300905 -0.64520484 0.063315734 -0.358451 -0.16927199 -0.66630715 -0.37596527 -0.9897716
-0.6457568 -0.38435987 -0.36378467 -0.26289162 -0.82083464 -0.21550806 -0.11439764 -0.8046822
-0.48468497 -0.8102133 -0.45826104 -0.4572561 -0.83161485 -0.6343168 -0.50335133 -0.5366206
-0.0879405 -0.66471213 -0.16791844 -0.5336957 -0.29034105 0.021883566 -0.20850271 -0.031278405
-0.9290691 -0.1457313 -0.77953625 -0.2686281 -0.40355217 -0.8330921 -0.38980982 -0.42912477
-0.8351284 -0.5384121 -0.49068293 -0.82548904 -0.370474 0.09045151 -0.3783642 -0.25290793
-0.2851782 -0.2196555 -0.36671022 -0.56450856 -0.4804664 -0.6697182 -0.4589595 -0.6991617
-0.20685233 -0.5003787 -0.7882789 -0.29681054 -0.2637008 -0.17311728 -0.15291375 -0.7391691
-0.69683075 -0.6819297 -0.20489068 -0.69658965 -0.195753 -0.085609384 -0.63915217 -0.81888956
-1.1592615 -0.5710676 -0.7859581 -0.4194887 -0.4649692 -0.45199203 -0.81042 -0.2835236
-0.14544895 -0.3714783 0.15420885 -0.26541013 -0.7633681 -0.22452156 -0.29826787 -0.60308766
-0.36812726 -0.27029216 -1.0839933 -0.29041865 -0.25504163 -0.1265058 -0.31978688 -0.5694781
-0.03518078 -0.382641 -0.7343381 -0.419033 -0.58430856 -0.454311 -0.26296753 -0.56256646
0.021842519 -0.12580602 -0.8079243 -0.5219462 -0.35335356 -0.29544863 -0.30565447 -0.80555665
0.5966887 0.09281 -0.20325075 -0.1321058 0.21233079 0.16627872 0.16993727 -0.007052805
0.49642935 0.07681282 -0.17097776 0.010949743 -0.004971417 0.15162143 0.1430001 -0.07650666
-0.25775173 -0.06532292 -0.09722589 -0.31865948 -0.007255072 -0.101801135 -0.03310205 0.18230426
-0.11266672 -0.09140331 0.2629199 0.38876262 0.07968304 -0.24199724 -0.25503892 0.14906964
0.18102181 -0.081683375 0.30826753 -0.015815092 0.38706714 0.15767822 -0.13356791 0.15272886
-0.34317192 -0.022374095 0.19088827 0.01880134 0.34427083 0.29514578 -0.27902505 -0.11806188
0.2366435 -0.025287284 0.075269096 0.09563343 -0.4528021 0.4418773 0.19854504 0.10993173
-0.11713798 -0.08844071 -0.26165295 -0.17278917 0.11301789 0.0030005232 0.1069146 -0.05413702
-0.05254981 -0.30064183 -0.19248909 -0.4691073 -0.6035069 -0.6204879 -0.42943096 -0.5718468
0.29521686 -0.42626134 -0.39744952 -0.94695324 -0.18125568 -0.3140859 -0.5184788 -0.39464936
-0.63798 -0.55009335 -0.44934204 -0.43938994 -0.6588975 -0.64373964 -0.5038744 -1.0310774
-0.7879486 -0.4606572 -0.1356429 -0.42109802 -0.680033 -0.5698447 -0.17720526 -0.95388323
-0.80818707 -0.913541 -0.7447165 -0.5411569 -0.81171125 -0.76292026 -0.282361 -0.40191284
-0.2384402 -0.6311345 0.03174821 -0.6230343 -0.5515025 -0.5137726 -0.14480087 -0.1805914
-0.5601333 -0.5866528 -0.57912713 -0.44196054 -0.32301068 -1.0184712 -0.4019149 -0.5392002
-0.5396575 -0.39148003 -0.22098957 -0.6844952 -0.603594 -0.62177444 -0.24322475 -0.21985018

lstm.bias_hh_l1 f4 [256]
00000000: d4ee 24be c434 f1be 2446 d1be 2e17 0fbf
00000010: 632e c0be bdb2 82bf 031c b0be 8373 fbbe
00000020: 2cb3 c63c 77c8 0fbf b523 5d3d 4ff8 8cbf
00000030: ad37 82be abea 6abe d502 f6bd dea0 30bf
00000040: 90b6 52bf f643 21bf 6027 0a3e 0b93 87be
00000050: db80 51be 3e0e 17bf 817f a6be 9b08 6dbf
00000060: 5d50 19bf 684a debe 8ac3 91be d02c ccbe
00000070: 50f0 18bf 880b 6bbe 5ef7 8d3d 1fb3 74bf
00000080: be82 edbe 805c 55bf 1ae9 00bf aeba afbe
00000090: e467 50bf b133 1fbf 34a8 d8be 6964 d0be
000000a0: 9c01 65be a579 22bf 5521 d3bd 87e3 edbe
000000b0: 000e 93be bae4 563e 120f adbe 41ab edbd
000000c0: 3363 84bf 205a a5bd d08d 6dbf 9956 82be
000000d0: 4c9d cabe 6920 4dbf ff1c 25be c9c8 08bf
000000e0: f0ee 58bf 403c 2fbf 93f8 26bf c8e5 3ebf
000000f0: debc d8be 22ec f23c 9264 dabe e3ba 93be
00000100: 8a8e e9bd 59c9 96be 4a33 9bbe cc10 f6be
00000110: 79f2 f3be c78b 1fbf 79e6 b0be b57c 20bf
00000120: 22f7 a2be a90e b9be 98cd 7fbf d09a ccbe
00000130: 4f47 9bbe e126 2fbe 7b3e 66be cc39 4bbf
00000140: d9a6 16bf c668 4dbf 214b 82be 7616 13bf
00000150: c7bf a5be e966 64be 09dd 34bf b61e 3cbf
00000160: 5e10 95bf cd23 12bf e542 35bf 57be 02bf
00000170: 6922 0bbf 1a8d ccbe 15d0 2ebf 5133 5abe
00000180: 25fa 4fbd 58f3 9fbe 1ce7 0a3e a2d2 4cbe
00000190: 5f7d 09bf cda3 40bd 7f45 4cbe 7a79 23bf
000001a0: 9730 8dbe 8a6f 8bbe 6983 6ebf 953f e7be
000001b0: abce 74be 8397 033d 7fcb 2dbe 51ad 30bf
000001c0: 63d4 36be 8ca2 cdbe 5abc 4bbf 0c9f e7be
000001d0: aa61 e2be 8d59 febe 1ad2 83be fd83 10bf
000001e0: 657a a0bd 6349 9ebd 3073 59bf dccc 00bf
000001f0: 0895 6cbe c8a9 d1be ca89 c9be 6a3e 3abf
00000200: 92b9 1a3f 7959 053e 52fd 2bbe 79d6 6fbe
00000210: 1b3c 973e 366b e73c a1ba 083e db39 d93d
00000220: cadb b03e 9a84 3d3e c2dd 66be ed9e e6bc
00000230: 92cb a0bd 6f55 d03d 48fe 0b3e 335f fd3d
00000240: 44c7 5abe 226b 44bd 4177 03be 3306 debe
00000250: 91b4 a9bd 07fd 42be 9da1 bdbc 3ad2 3b3d
00000260: 4a75 98be 1b57 2cbe 4bd1 8a3e 4144 7a3e
00000270: 9e87 b73c a6a3 96be 01d1 e8be 2bb8 383e
00000280: ee5b 3a3e 28ed b9bb 1106 413e 663c 223c
00000290: 7058 d63e c1dd 7a3e d3a7 41bb 2db8 ea3d
000002a0: 59de c9be a37b edbd a30f 0c3e 88a5 47bd
000002b0: 8ec1 bd3e 4084 6c3e 74e1 b7bd 3c8d 24be
000002c0: 095d 433e ad5b 0eba 79d0 a63d b32a f23d
000002d0: 33d4 91be 9f36 ae3e 4287 9a3e 7b5a b5bd
000002e0: 46d7 88be 8d6d 81be 0005 2dbe 59f5 d0bd
000002f0: 587e 093e 3820 a3bd 268b 493e 989f 853c
00000300: ce68 3dbe c536 69be 4140 cabe d502 04bf
00000310: 7b64 1abf 87ad 20bf 2df6 bdbe 1e9d 2cbf
00000320: 8c87 7f3e 1377 ecbe b6f7 12bf ed27 45bf
00000330: 149d 62be 1cc1 9bbe 4e9c f7be 5473 edbe
00000340: 98c5 45bf dfff 02bf 48ad bcbe e523 d4be
00000350: a7c8 24bf 3fdc 1ebf 1969 d2be 105a 78bf
00000360: cf35 33bf 6d3c 17bf 85a2 fbbd 29ba bdbe
00000370: 982c 0dbf 09dc f1be dfb4 0cbe c7e9 3fbf
00000380: 5190 5bbf 7763 4cbf 9b71 42bf b5f2 fcbe
00000390: 66d2 6ebf 466d 32bf a261 8dbe f2fc bcbe
000003a0: 5b0f 58be 2d71 2bbf 15be 03be d99c 45bf
000003b0: 14d2 f1be 84f0 29bf 7383 85be df3a 6cbe
000003c0: 6d75 19bf 9f8f 1ebf 35c0 40bf cfe3 f5be
000003d0: 8a8a c0be e6ab 57bf 4bfd b3be 0b50 c2be
000003e0: 5ece 34bf 46f1 a6be 2af3 78be 2617 27bf
000003f0: e5d0 c9be 6209 15bf b82d 68be 3346 50be
-0.1610673 -0.4711057 -0.40873826 -0.55894744 -0.3753539 -1.0210797 -0.3439637 -0.49111566
0.024255358 -0.5616526 0.05398913 -1.1013278 -0.25433102 -0.22941081 -0.12012259 -0.68995464
-0.8230982 -0.62994325 0.13491583 -0.26479372 -0.2045931 -0.59006107 -0.32519153 -0.92591256
-0.5988825 -0.43416142 -0.28469497 -0.3987794 -0.5974169 -0.22953618 0.06931947 -0.9558582
-0.4638881 -0.8334427 -0.50355685 -0.34322113 -0.81408525 -0.6218825 -0.4231583 -0.40701607
-0.22363895 -0.63466865 -0.10309092 -0.46462652 -0.2872162 0.2098569 -0.3380056 -0.1160493
-1.0342773 -0.080738306 -0.92794514 -0.25456694 -0.39573133 -0.8012758 -0.16124342 -0.53431374
-0.8473959 -0.6845131 -0.65223044 -0.7456937 -0.42331594 0.029653613 -0.42654854 -0.2885352
-0.1140414 -0.2945049 -0.30312568 -0.4805969 -0.4764593 -0.6232266 -0.34550837 -0.6269029
-0.31829172 -0.36143997 -0.99923086 -0.39961863 -0.30327842 -0.17104675 -0.22484772 -0.79385066
-0.5884834 -0.80237997 -0.25447944 -0.5745615 -0.32372877 -0.22304882 -0.7064977 -0.7348436
-1.164562 -0.5708588 -0.708052 -0.51071686 -0.5434938 -0.39951402 -0.6828626 -0.21308638
-0.050775666 -0.31240344 0.13564724 -0.20002225 -0.53706926 -0.047031213 -0.19948386 -0.63857234
-0.27576134 -0.27233535 -0.93169266 -0.45165697 -0.23906963 0.032126915 -0.16972159 -0.6901446
-0.17854457 -0.40163076 -0.79584277 -0.4523853 -0.44215137 -0.49677697 -0.25746232 -0.564514
-0.07835845 -0.07728841 -0.8494139 -0.5031259 -0.23103726 -0.40949845 -0.39362937 -0.72751486
0.6043941 0.13022412 -0.16795853 -0.23421659 0.29538044 0.028249364 0.13352443 0.10606738
0.34542686 0.18507615 -0.22545531 -0.028151954 -0.07851328 0.10172545 0.1367122 0.123716734
-0.21365076 -0.047953732 -0.1283846 -0.43364105 -0.082863934 -0.19041835 -0.023148352 0.045854785
-0.29776984 -0.16830103 0.27112803 0.244401 0.022403535 -0.2942173 -0.45471957 0.18039005
0.18199131 -0.005674023 0.1884997 0.009902095 0.41864347 0.24498655 -0.0029549494 0.1146091
-0.3942745 -0.115958475 0.1367784 -0.048741847 0.37061733 0.23097324 -0.08978549 -0.16069502
0.19078459 -0.0005430531 0.08145232 0.118245505 -0.28482208 0.34026048 0.3018132 -0.088551484
-0.2672674 -0.25278893 -0.16896439 -0.10203046 0.13427103 -0.079651296 0.19681987 0.016311452
-0.18497011 -0.22774799 -0.39502147 -0.5156682 -0.6030957 -0.6276478 -0.3710188 -0.6742724
0.24954051 -0.46184596 -0.57409227 -0.77014047 -0.22130233 -0.30420768 -0.4836144 -0.4637705
-0.7725463 -0.5117168 -0.36850953 -0.41433635 -0.6436867 -0.6205482 -0.41095808 -0.97012424
-0.7000398 -0.5907658 -0.122868575 -0.3705609 -0.5514617 -0.47238186 -0.13740872 -0.7496609
-0.85767084 -0.7983927 -0.759546 -0.4940392 -0.9328979 -0.6969799 -0.2761355 -0.36911732
-0.21099608 -0.6696957 -0.1286548 -0.77192456 -0.4723059 -0.6638262 -0.2607685 -0.23069333
-0.599448 -0.619379 -0.75293285 -0.48025367 -0.37605697 -0.8424667 -0.35154185 -0.37951693
-0.7062739 -0.32605952 -0.2431151 -0.65269697 -0.39417186 -0.5821744 -0.2267369 -0.20339279
